sandbox/best_tft_cpu.pt (torch, 329912 bytes, 300 tensors)

prescalers.encoder_length.weight f4 [20, 1]
000000 8c aa 55 bf 57 6b a8 be dd 20 4b 3f 59 89 36 3f
       -0.8346336 -0.32894394 0.7934702 0.71303326
000010 20 f4 18 3e 4a ad 8b 3f 8c 48 26 bf fd 45 4b 3f
       0.14936876 1.0912259 -0.6495445 0.7940367
000020 d8 f6 60 bf 2f 36 6a 3f 79 29 d5 3c 4f f7 05 bf
       -0.87876654 0.9148893 0.026020752 -0.5233049
000030 f0 7e 32 bf 70 9c 89 3b 05 c7 4d bf a8 71 90 3f
       -0.6972494 0.004199557 -0.80381805 1.1284685
000040 d2 48 67 be 4d 11 9e bd 6d 3f ec be ba 6a 06 3f
       -0.22586372 -0.077181436 -0.4614214 0.525066

prescalers.encoder_length.bias f4 [20]
000000 ad f7 48 be a9 39 fc 3e 5a df 50 bf 42 20 ca be
       -0.19625731 0.4926274 -0.8159081 -0.39477736
000010 d9 31 72 bf 9b d0 2f bf 76 51 8f 3c 68 99 60 3f
       -0.9460731 -0.6867768 0.017494898 0.8773408
000020 97 ab 02 bf 02 84 ac 3e 5c af 14 be 5b 9e e0 3e
       -0.51043075 0.33694464 -0.1452002 0.43870816
000030 95 01 70 bf 38 72 c9 3e 99 ae ac be 38 7b e5 3e
       -0.93752414 0.39344954 -0.33726957 0.4482057
000040 bf a2 32 bf 33 21 00 3f 3b ad c1 be 99 ff 5a bf
       -0.6977958 0.5005066 -0.37827477 -0.8554626

prescalers.encoder_length.bias f4 [20, 1]
000000 d4 3e 15 bf 50 49 da be 40 84 ef 3c ac c0 ab be
       -0.58298993 -0.42634058 0.029237866 -0.33545434
000010 c0 f7 fa 3e 68 b7 2d bf 2c b5 00 bf 90 09 d4 bd
       0.49017143 -0.6785798 -0.50276446 -0.103533864
000020 80 f1 b9 be 3e 27 7e 3f 00 ba 9b 3b cc 62 10 bf
       -0.36317062 0.9927863 0.0047523975 -0.5640075
000030 b4 6f 8d 3e 7c 37 c9 3e 78 6c 79 bf c8 24 54 bf
       0.27624285 0.39300144 -0.97431135 -0.82868624
000040 08 55 64 3e 9e 3d 55 3f 70 23 a0 bd 6c f5 92 3e
       0.22298062 0.83297145 -0.07819259 0.28702867

prescalers.encoder_length.bias f4 [20]
000000 06 c3 d5 be 68 ba 02 3f d2 ad 21 3f a8 9d 37 bf
       -0.41750354 0.51065683 0.63155854 -0.7172494
000010 a7 c3 40 3c 42 d5 e4 3e 57 9b a6 3e 5a 9d 67 bd
       0.011765397 0.44693953 0.3254039 -0.056546547
000020 b5 f6 38 bf 23 0c d8 be 39 d5 b1 3e 44 f0 e9 39
       -0.72251445 -0.4219676 0.34732988 0.00044620235
000030 b6 f6 f6 3e 5b ff b1 be b3 10 24 3f ea bd 2b 3e
       0.482351 -0.34765133 0.6408798 0.16771665
000040 04 9e 38 3a 1f d3 84 3a a6 aa ff 3e 4f fb 2b bf
       0.0007042589 0.001013372 0.49934882 -0.6718034

prescalers.encoder_length.bias f4 [20, 1]
000000 64 9a 8c 3e c0 f1 1f bf 10 6c 2c 3e a4 1b 81 3e
       0.2746154 -0.62478256 0.16838098 0.252164
000010 22 6e 7c bf b8 04 61 3f 96 ec 77 3f c6 fd 15 3f
       -0.9860555 0.87897825 0.96845376 0.5859035
000020 ba cd 7a 3f f2 2c 07 3f dc cd ee 3e 1a dd 30 3f
       0.97970164 0.52802956 0.46641433 0.69087374
000030 8e 58 55 3f a4 c9 5b bf f0 93 d1 3d 16 30 4d bf
       0.8333825 -0.85854554 0.10233295 -0.801515
000040 0c ad 06 bf 00 8b 19 3f 34 e0 50 3f 14 8d e7 3e
       -0.526078 0.5997772 0.81592107 0.45224822

prescalers.encoder_length.bias f4 [20]
000000 57 2b 0e 3f 6c 0b 16 3f a4 bc 4d 3f cf 30 dd 3d
       0.5553488 0.5861118 0.8036597 0.10800325
000010 6a 73 44 bf f3 3a aa 3d 1b 49 64 3e 2e 2e de 3d
       -0.7673861 0.08312025 0.22293513 0.10848652
000020 cc 2a 6d be 4b 37 71 bf 2a f1 89 3b 37 a5 a4 3e
       -0.23160857 -0.94224995 0.004209657 0.321573
000030 bc 91 31 3f 6b 1a 12 3f 4f ae 31 bf d0 92 86 be
       0.69363 0.5707156 -0.694066 -0.26283884
000040 8f 41 be be 7e 58 13 bf d2 53 68 3e 5f cf 96 3d
       -0.37159392 -0.57556903 0.22688225 0.07363772

prescalers.year.weight f4 [20, 1]
000000 16 f2 41 3e 3b e3 6d bf d8 5f 4a bf d7 68 65 be
       0.18940005 -0.9292485 -0.79052496 -0.22403274
000010 1e 18 26 bd 23 f7 13 bf d1 3f 64 3f 68 e4 27 3f
       -0.040550344 -0.57798976 0.89159876 0.65582895
000020 be 6b 5c be 3e ea 4c bf 7c 58 02 3f a5 24 29 3f
       -0.21525475 -0.80044925 0.50916266 0.6607154
000030 c8 23 4c 3f 78 af 48 3f 17 33 af bf da 8e ca 3b
       0.797421 0.78392744 -1.3687466 0.00618158
000040 ea 9c 45 bf 3a 11 f7 be af 94 71 3f 9b 62 2a 3f
       -0.77192557 -0.4825533 0.943675 0.6655671

prescalers.year.bias f4 [20]
000000 53 ce e4 3e b6 3f 05 3f e9 cc 3c 3c 55 1d 95 3c
       0.44688663 0.5205034 0.011523464 0.018202463
000010 a7 e8 43 3f de 12 4e 3e 8e aa 22 3f 9b d3 81 3f
       0.76526874 0.20124385 0.63541496 1.0142702
000020 77 fd 85 be f6 a1 3e bf d8 29 5d 3e 8b 7e 35 bf
       -0.2616994 -0.7446588 0.21597993 -0.70896214
000030 0a 28 7e bf 26 28 54 bf 70 8a 15 be 09 c6 4d bf
       -0.99279845 -0.8287376 -0.14603591 -0.803803
000040 4f a8 22 3f 03 05 f3 bd 3a ef 42 bf 89 63 5c 3e
       0.6353807 -0.1186619 -0.7614628 0.21522345

prescalers.day_of_week.weight f4 [20, 1]
000000 c9 3f 2e 3f fd 18 eb bd db 44 04 bf 15 16 80 3e
       0.6806608 -0.114793755 -0.51667565 0.25016847
000010 39 cd 82 3f 47 ff 6c bf 2c 2e 40 3f c9 04 35 bf
       1.0218879 -0.9257702 0.7507045 -0.70710427
000020 f9 2f e3 3e 24 5b 55 3f 31 12 8f 3e 3d 50 de be
       0.44372538 0.83342195 0.27943566 -0.43420592
000030 ee 54 10 3f 9b 88 15 bf a1 b5 f9 3e 6d 67 87 bf
       0.5637959 -0.5841157 0.48771384 -1.0578438
000040 60 33 4f bf 8e 8b 8c 3f 5a 9f 61 3f ff 7d 26 3f
       -0.8093777 1.0980089 0.88133776 0.65036005

prescalers.day_of_week.bias f4 [20]
000000 5d fe ee be d7 c2 47 be 57 64 f2 3d fd 02 85 bf
       -0.4667844 -0.19507919 0.118355446 -1.0391537
000010 8b e2 2c bf dc 59 ed bd f8 8a 7d 3f 48 d4 3a 3f
       -0.6753318 -0.11589405 0.99040174 0.72980165
000020 71 7a 0a 3e dd 8b 93 bb a2 50 dc be 57 d4 da bd
       0.1352327 -0.004502757 -0.43030268 -0.10685032
000030 0f 4f 79 bf 34 1f 49 3f 87 4d 0a 3f af 48 0d be
       -0.9738626 0.7856324 0.5402455 -0.13797258
000040 95 18 61 bf 0d 28 7a 3f 4f 12 40 bf cf e7 50 be
       -0.87928134 0.9771736 -0.75027937 -0.20400928

prescalers.month.weight f4 [20, 1]
000000 66 76 2a bf 1d 78 e7 3e 19 29 3c bf ab 7c 41 3f
       -0.6658691 0.45208827 -0.7350021 0.75580853
000010 f5 33 dc 3d dc 31 39 bf 79 4c d0 be 5e 23 46 bf
       0.107520975 -0.72341704 -0.40683344 -0.77397716
000020 02 33 82 3f f9 d5 79 bf ce d0 29 bf 50 9b 12 3f
       1.0171816 -0.9759212 -0.66334236 0.5726824
000030 34 60 46 be 34 1d 6c be db 82 cc be a0 00 4d bf
       -0.19372636 -0.23058015 -0.39943585 -0.8007908
000040 00 83 55 3e 17 d0 96 be d8 bc f9 be e2 09 2c 3f
       0.20850754 -0.29455635 -0.4877689 0.6720258

prescalers.month.bias f4 [20]
000000 2b 88 09 3f dd 2b 6d bf 6d d7 9c be ed 6c a3 3e
       0.537234 -0.92645055 -0.30633107 0.3191904
000010 26 92 c7 be 6a 61 8a bd d1 6b 1d bf 78 bb 54 3c
       -0.3897869 -0.067568615 -0.6149264 0.012984149
000020 c6 bb 85 bf f6 b7 22 3f 9c b0 d9 3e 69 c7 c2 3e
       -1.0447929 0.6356195 0.42517555 0.38042763
000030 3e e5 51 3f 20 00 88 bf 5a 64 d2 be 0a a8 8a be
       0.8199042 -1.0625038 -0.41092187 -0.2708133
000040 5c 9a 8c 3f ea a1 5d bd 46 b7 28 3f 18 34 06 bf
       1.0984607 -0.05410949 0.65904653 -0.5242324

prescalers.hour.weight f4 [20, 1]
000000 f8 0a a5 3e 7b 01 80 3e 09 e6 dc 3b 12 50 19 bf
       0.3223493 0.2500113 0.0067412895 -0.598878
000010 80 27 11 bf 1e fa 0b be cc 88 e9 3d a9 81 60 bf
       -0.567009 -0.13669631 0.11403045 -0.87697846
000020 f9 49 73 be 58 24 88 be b2 35 7c 3c 53 d9 5c 3e
       -0.23758687 -0.26590228 0.015393661 0.21567278
000030 70 de 40 be cf bb 54 3f d8 34 30 3f 89 fe 1f be
       -0.18834853 0.83099073 0.68830633 -0.15624441
000040 f7 b6 6e 3f 73 e6 a0 3f 21 c4 50 bf 4a b3 8a bf
       0.9324793 1.2570328 -0.8154927 -1.0835965

prescalers.hour.bias f4 [20]
000000 e7 ee 33 bc f0 8f d0 3e 69 a4 b3 be 37 94 2d 3e
       -0.010982252 0.40734816 -0.35086372 0.1695107
000010 b0 ad 89 3d e4 2a 90 3e b5 b0 02 bf 1f 25 3e bf
       0.067225814 0.28157723 -0.51050884 -0.7427539
000020 54 fd 63 3f 72 f8 58 bf ff cb 09 3f 89 13 43 be
       0.89058423 -0.847541 0.538269 -0.19050421
000030 07 3b 8b bd 2b 80 62 bf 50 b2 32 bf 99 28 2a bf
       -0.06798368 -0.8847682 -0.69803333 -0.664682
000040 9f df 91 3e 68 33 11 3e fa 5c e0 3e 2f e6 bf be
       0.28490922 0.14179766 0.43820935 -0.37480304

prescalers.is_holiday_or_weekend.weight f4 [20, 1]
000000 d5 2d c2 3e 5e 92 01 bf a7 a6 47 bf 0c 92 c2 3e
       0.37925592 -0.50613964 -0.77988666 0.3800205
000010 92 fa 43 3f 6c 0d 34 bf 94 8c c0 3e b5 c6 35 bf
       0.76554215 -0.7033298 0.37607253 -0.7100633
000020 a3 a7 2f 3f 8a 76 17 3f 9f b1 00 3e 9c 32 2f be
       0.6861517 0.5916525 0.12567757 -0.1710915
000030 bf cb 68 3f b9 d2 f7 be 5e 06 32 bf 4b 63 fb 3e
       0.9093589 -0.48402956 -0.69540966 0.49099192
000040 37 a9 3a be 16 36 91 be 0f 7f 62 bd 53 af b1 3e
       -0.18228613 -0.28361577 -0.055296954 0.34704074

prescalers.is_holiday_or_weekend.bias f4 [20]
000000 c9 29 5f 3f f4 44 6b be ac d1 c2 be b2 be 12 3d
       0.87173134 -0.22975522 -0.38050592 0.035826392
000010 3a c3 6d 3f 2b cc 8f 3d e7 f3 40 3f a4 10 52 bf
       0.9287602 0.07021364 0.75372165 -0.8205664
000020 ae 2b 2d 3f ea 62 36 bf f9 ab 32 bf 60 0f 4a bf
       0.67644775 -0.7124468 -0.6979366 -0.7892971
000030 8a 31 9b bf 07 5c 62 bf 93 74 25 bf 7a 01 c1 be
       -1.2124493 -0.8842167 -0.64631003 -0.3769644
000040 0b ae 29 3e 86 14 6d 3e 89 57 e1 be 1e 30 0c bf
       0.16570298 0.2315236 -0.44012097 -0.5476092

prescalers.relative_time_idx.weight f4 [20, 1]
000000 c1 96 43 3f cb 0e de 3e 19 d6 8e 3f ae e0 b6 be
       0.7640191 0.4337066 1.1159087 -0.35718292
000010 61 38 86 3f 19 bb 97 3f de 7e 7d bf 9d 63 9e 3f
       1.0485955 1.1853973 -0.9902171 1.237415
000020 90 cd a7 bf 71 c0 fb be ca a4 9b 3f 3f 95 b9 3d
       -1.3109608 -0.4917026 1.2159665 0.090616696
000030 d4 5b 10 3f 27 c4 72 bf 76 11 ac bf ac 00 83 3f
       0.5639012 -0.94830555 -1.3442829 1.023458
000040 b7 b9 d8 3e 24 26 d9 be e7 c9 89 3f 84 d3 b0 3e
       0.4232919 -0.4241191 1.0764741 0.34536374

prescalers.relative_time_idx.bias f4 [20]
000000 1f eb 02 3f 44 e6 2f bf 45 73 3c 3f 2d dd 3c 3f
       0.51140016 -0.6871073 0.7361339 0.7377499
000010 f5 ae cc 3d 70 9b d8 3e 62 48 16 bf e2 b7 50 3f
       0.09994308 0.4230609 -0.587042 0.8153058
000020 22 39 0a bf 65 e2 15 3f c8 56 e6 be 83 87 44 be
       -0.5399343 0.58548576 -0.44988084 -0.19192319
000030 ad ff 75 3f 7a fb bb be 7b 45 25 bd 9d 53 02 3e
       0.96093255 -0.367153 -0.040349465 0.12727208
000040 16 54 98 be b6 c8 41 3f 64 f7 3b 3f ee 59 9a bc
       -0.29751652 0.75696886 0.73424363 -0.01884171

prescalers.relative_time_idx.bias f4 [20, 1]
000000 4e 65 41 3f c9 f9 c8 be a7 0a 64 be 09 8d a2 bd
       0.75545204 -0.3925307 -0.22269689 -0.079370566
000010 5c aa 8f be e3 23 70 bf 43 79 6b 3e 38 28 71 3f
       -0.2805966 -0.9380476 0.22995476 0.94201994
000020 20 99 01 3f 7f 0f cb bd 98 8b 41 bf b8 d8 4d 3f
       0.50624275 -0.09915065 -0.7560363 0.8040881
000030 61 61 13 3f a8 a6 6f bf 8d f6 65 3f a4 3f 8e 3c
       0.57570463 -0.9361367 0.8982933 0.01736433
000040 c4 6e 79 bf b6 51 b9 3d 59 69 49 3f 6b c0 13 3c
       -0.9743464 0.09048788 0.7867637 0.009018044

prescalers.relative_time_idx.bias f4 [20]
000000 df 6d 1e 3f 99 51 45 3e 07 79 05 3f f4 36 bd be
       0.618864 0.19269408 0.521378 -0.36955988
000010 de c1 88 3d f7 66 43 bf 6d 23 16 3f 5e a6 31 3e
       0.06677602 -0.76328987 0.58647805 0.1734862
000020 b0 8d 02 bf b7 c3 7f 3f 7e 7c 14 3f 58 f4 78 be
       -0.5099745 0.9990801 0.5800246 -0.2431196
000030 86 d6 9e be 9b 28 80 3f 65 b4 fc 3e a7 c9 3b 3f
       -0.31023043 1.0012392 0.4935638 0.7335457
000040 4f b9 2a bf c5 74 af 3e a4 26 41 3f 62 7c 96 bd
       -0.6668901 0.34268776 0.75449586 -0.07347943

static_variable_selection.flattened_grn.resample_norm.mask f4 [4]
000000 f3 0b e1 bd d3 dd 81 3e f1 e9 34 be 9a dd b9 be
       -0.10988607 0.2536455 -0.17667367 -0.3630188

static_variable_selection.flattened_grn.resample_norm.norm.weight f4 [4]
000000 e9 8d 63 3f 24 9a 17 40 fa 0e 30 3f bb 75 53 3f
       0.8888841 2.368783 0.6877285 0.8260152

static_variable_selection.flattened_grn.resample_norm.norm.bias f4 [4]
000000 49 e2 17 3e fb dc 9e bc 1c c4 a2 3e 5d 57 65 be
       0.14832415 -0.019392481 0.31790245 -0.22396608

static_variable_selection.flattened_grn.fc1.weight f4 [4, 61]
000000 cb 0d 45 bd d1 51 07 3e ec 80 9b bb a9 6c 2e bf
       -0.048108857 0.13214804 -0.0047455933 -0.6813455
000010 2b 27 05 be 51 60 0e be 45 92 88 bd f2 28 52 bd
       -0.13003223 -0.1390393 -0.06668524 -0.05130858
000020 03 bd 30 3e 83 fc c3 3d b4 f9 8c 3e 74 8e 7d 3e
       0.17259602 0.09569647 0.27534258 0.24761373
000030 3b 88 00 3f 65 e0 bd 3e ef c1 be 3c 86 85 67 3e
       0.5020787 0.37085262 0.023285834 0.22609529
000040 d7 bb 88 be ba d5 1e bd 8a c5 8b be cc a4 4c be
       -0.2670581 -0.038778044 -0.27299148 -0.1998474
000050 cd 0f 13 3d e4 4c 11 be 98 d9 9b bc 4b f6 f4 3c
       0.03590374 -0.14189488 -0.019024655 0.029902598
000060 3f 7c c6 3c 1a ae b9 3d 9e e9 66 3e 59 af 0d 3e
       0.024229167 0.0906641 0.22550055 0.13836421
000070 47 51 92 bb 9e b9 5c 3d 9c 4e 86 be a7 2a b4 be
       -0.0044652554 0.053887956 -0.2623185 -0.3518879
000080 87 b2 f6 3c 97 96 fb 3d b8 04 8e 3d 6f 57 01 3e
       0.030114425 0.12284582 0.06934494 0.1263101
000090 0f 32 32 3e b9 bc 73 3e f3 a5 66 3e ff d8 19 3e
       0.17401908 0.2380246 0.22524242 0.15024184
0000a0 b4 be 86 3e 75 e0 a3 bd 78 b5 d3 bb 48 b8 34 be
       0.2631737 -0.08001796 -0.0064608417 -0.17648423
0000b0 9c 6a 29 3e e3 14 d1 be 76 66 9e be 4a f1 15 3e
       0.16544574 -0.40836248 -0.30937546 0.14642826
0000c0 52 23 ab be bc 5e 90 3d 79 df bb 3d b0 c7 d9 bd
       -0.33425385 0.07049319 0.091734834 -0.106337905
0000d0 80 e8 e6 bb 57 6a f8 3d 65 82 53 3e 4c 67 de 3e
       -0.007046759 0.12129658 0.2065521 0.43438184
0000e0 4a 76 02 3c 5f 3f 41 bd c3 36 a4 3d 78 7f c6 3b
       0.007962773 -0.047179576 0.080182575 0.006057676
0000f0 61 24 d5 bd 4d 1e 87 be 48 91 c4 3e eb 1c 61 3e
       -0.10407329 -0.26390305 0.3839209 0.21983688
000100 31 49 ce bf 16 71 02 be 28 d3 4e bd ca dc 54 bf
       -1.6116086 -0.12738451 -0.050494343 -0.831494
000110 6c 65 de 3e 7d f2 5c 3e 87 ad 62 3e 8f 92 7a bd
       0.43436754 0.21576877 0.22136508 -0.061174925
000120 bd 7b 04 be 45 04 8c 3f fc cd 1e be bb 8b 24 3e
       -0.12937827 1.0938803 -0.15508264 0.16068928
000130 e7 66 b6 bd 6d 37 81 be c4 05 ea bd b3 40 b5 3d
       -0.08906346 -0.252376 -0.11426881 0.08850231
000140 1e 9f 0d 3e 8e b8 60 be 05 18 33 be fb 67 8d 3d
       0.1383023 -0.21945402 -0.17489631 0.06904598
000150 7c c8 ce 3d 8f 9a a6 3e 1e e1 ae bc 37 a1 02 3e
       0.10096833 0.32539794 -0.021347579 0.12756811
000160 c1 a1 c4 39 c4 94 04 3e 53 ea 73 3d 4c f8 ec bb
       0.0003750455 0.12947375 0.05954964 -0.0072317477
000170 b2 68 b0 3d 53 11 7e bd 28 13 8c 3e a7 1a 49 be
       0.08613719 -0.06202824 0.27358365 -0.19639073
000180 9f cd a3 3d 58 58 b5 bc c7 b8 2a be 9a 70 a0 bd
       0.079982035 -0.022136852 -0.1667205 -0.07833977
000190 dd 9c 09 3e 53 af 58 bb cf 03 61 3d e3 4a c7 3d
       0.13438745 -0.0033063486 0.054935273 0.097310804
0001a0 bb 37 11 be 15 6d 2c be 57 f4 d3 be 1c 2d b4 be
       -0.14181416 -0.16838486 -0.41397354 -0.35190666
0001b0 f9 f7 15 bc 62 f2 07 3e 2b cb 0f be 3a b5 45 3e
       -0.00915336 0.13276055 -0.14042346 0.19307414
0001c0 39 8f ff 3d 11 62 00 3e 73 82 e1 bd ee 06 a2 3e
       0.124784894 0.1253741 -0.11011209 0.31645912
0001d0 a4 b8 01 be 39 ac a3 be 2d 4e a2 be 1b 4d 8d 3e
       -0.12668091 -0.31967333 -0.31700268 0.2759789
0001e0 d9 4d 4a 3e 56 66 a9 be 63 7a 5e 3d 94 df ed bd
       0.19756259 -0.3308589 0.054315936 -0.1161491
0001f0 6a 2e 9e bd 5c df f3 3e 15 cc 8b 3e 4d 77 ad 3e
       -0.077236965 0.47631347 0.2730414 0.33880082
000200 78 ff 4a 3e 07 8b 8c be f8 38 e0 3e 0d 0b ee bd
       0.19824016 -0.2744982 0.43793464 -0.116232015
000210 66 19 08 3c ed cc 6f be ba cf 0c bf 3d cb 31 3e
       0.008306837 -0.23418017 -0.55004466 0.17362686
000220 23 0d 7c 3c d2 fa 32 3e e6 08 6e be a4 96 c4 bd
       0.015383991 0.17478493 -0.23245582 -0.09599045
000230 97 7f e2 3d 9b f2 0a 3e ee 93 21 3e 54 1f 47 3e
       0.11059492 0.13569109 0.15779087 0.19445544
000240 3d 87 0a be 42 ff 1c 3c 03 6f 1f 3e 9b be ba 3d
       -0.13528152 0.009582343 0.15569691 0.09118386
000250 6c c6 0f 3e 09 d6 89 be 40 46 f8 3d 08 3f 39 be
       0.14040536 -0.26921108 0.12122774 -0.18090451
000260 19 20 0e 3f 57 ae ec be fc fe 86 be c6 a4 90 3e
       0.5551773 -0.4622676 -0.26366413 0.28250712
000270 75 7c 91 3e 29 6f 9a bd 94 a5 02 be 58 3d b3 3c
       0.28415266 -0.07540733 -0.12758476 0.021879837
000280 86 e9 30 3e 52 71 49 be 93 37 96 3d d2 02 06 bc
       0.17276582 -0.19672135 0.07334819 -0.008179383
000290 0b e3 37 bd 61 bf 88 be cc b2 60 be 1b f5 18 bd
       -0.04489426 -0.2670851 -0.21943206 -0.037343126
0002a0 0e c1 83 3d 56 51 6a be dd b7 92 be 47 fc 68 3e
       0.06433307 -0.2288259 -0.28655902 0.22752486
0002b0 f1 58 39 3e 06 45 f5 bd 72 e9 bf 3d 21 2a 70 be
       0.18100335 -0.11976056 0.09370698 -0.23453571
0002c0 6f f7 67 3d 10 af 0a 3e 75 3c 57 3e cb 9b be bd
       0.056632455 0.13543344 0.21019156 -0.09307059
0002d0 e5 30 59 3d 9d fb 11 be 9e b8 94 3d 31 11 b1 3d
       0.053025145 -0.14256139 0.072617754 0.08645857
0002e0 d7 61 4a be 9e f7 11 be d5 43 be 3f da 78 e7 3e
       -0.19763885 -0.14254615 1.4864451 0.4520939
0002f0 1f 96 90 bd 36 22 0f 3f 08 1a e5 bd 8d 5b ae 3d
       -0.07059883 0.55911577 -0.11186606 0.08513556
000300 ad 6a 09 3d 07 6c 9d 3e d6 05 95 3e 23 22 71 bf
       0.033549 0.3074648 0.29106015 -0.94192713
000310 67 02 4f be bd 59 f7 3d f6 7f bf bd 9b 38 26 3e
       -0.2021576 0.12077663 -0.093505785 0.16232531
000320 10 a0 9f be 9b 4e ae 3c 3d c4 09 3e fc c0 17 be
       -0.31176805 0.021277716 0.13453765 -0.14819711
000330 76 da 6e 3e 16 68 33 be 71 7d 0a be 14 dc c7 3e
       0.23325524 -0.17520174 -0.13524415 0.39035094
000340 8c 7b af bc 43 8a 02 3e d8 43 05 3e 4f ae 9c 3c
       -0.021421216 0.12748055 0.13014162 0.019126086
000350 c7 c8 a3 bc b5 b3 87 3d 57 ce 61 3e 6a ea 9c bd
       -0.019993199 0.06626073 0.22051369 -0.076618984
000360 74 57 c1 3c 9d bd 23 3d 93 fd 4f be 62 d3 3d be
       0.023601271 0.03997575 -0.20311575 -0.18537667
000370 0a e6 b5 be 01 71 47 be 94 a8 72 be 6b 75 25 3e
       -0.35527068 -0.19476701 -0.2369712 0.16158073
000380 b7 17 a4 39 7e 3a 86 3e 1e ad e5 3a 49 d8 5c 3e
       0.00031298187 0.262165 0.0017522906 0.21566881
000390 34 93 72 3d e9 c8 7f 3c 7c c6 38 3e 7a 48 91 3e
       0.059222415 0.015611866 0.18044466 0.28375608
0003a0 a7 ca bb 3d 10 77 8e 3b c5 7c 8f 3e 6f c4 e9 3d
       0.09169512 0.0043476894 0.2802488 0.1141442
0003b0 86 10 79 be 3c 46 06 3e 71 9c 06 3e 8d 3a a2 bd
       -0.2432271 0.1311273 0.13145615 -0.07921324
0003c0 48 b3 1a 3e 64 b3 06 3c 3b 12 7c 3e 1c ac 79 bd
       0.15107453 0.008221481 0.2461633 -0.060955152

static_variable_selection.flattened_grn.fc1.bias f4 [4]
000000 a9 29 14 3c 25 e4 80 3d 9e 73 85 bd 98 c4 f0 bc
       0.009043136 0.06293515 -0.06516193 -0.029390618

static_variable_selection.flattened_grn.fc2.weight f4 [4, 4]
000000 f3 65 b4 be f8 6c 5b 3f 6f 14 ea 3e 75 37 bf be
       -0.3523403 0.8571315 0.45718715 -0.37346998
000010 09 b1 90 3e a5 8f 6a 3e 5f c4 12 3f 41 25 bb 3e
       0.28260067 0.22906359 0.5733089 0.3655186
000020 55 b7 a6 3e 64 dd 71 bf 76 ab 4e bf 3f e2 ed 3c
       0.32561746 -0.9447844 -0.8073038 0.029038547
000030 7f fb 0b 3f ca 12 9a 3f a5 94 a9 bf 79 08 0b bf
       0.5468063 1.2036984 -1.3248488 -0.54309803

static_variable_selection.flattened_grn.fc2.bias f4 [4]
000000 ba 41 7a 3d e4 23 4a 3e ca ae 5b 3e c3 78 72 bc
       0.061097838 0.19740254 0.21453395 -0.0147993

static_variable_selection.flattened_grn.gate_norm.glu.fc.weight f4 [8, 4]
000000 06 02 29 bf 00 d6 22 bf a8 be 8c 3e d1 7a 53 be
       -0.6601871 -0.6360779 0.2748921 -0.2065232
000010 f1 b8 d3 be 6c bb e6 be 39 05 55 bd ff cc 37 bf
       -0.41352037 -0.45064867 -0.052006934 -0.71797174
000020 26 45 38 bd 7f 56 9a 3e 8a 31 75 3d 44 d3 7c be
       -0.04498782 0.30144116 0.059861697 -0.24689966
000030 bc d4 df 3e ae a9 70 be 0d c9 21 bf fb fc 08 3f
       0.4371699 -0.23502228 -0.63197404 0.5351102
000040 5a 78 81 be e3 74 87 be a4 30 8c be 3d 7d 30 bf
       -0.25287133 -0.26456365 -0.2738086 -0.689411
000050 72 b8 ce be 16 81 e1 3e c3 36 6d be bd 96 54 bf
       -0.40375096 0.44043797 -0.23165421 -0.8304251
000060 d0 79 3c be 3f fa 04 3f 74 c8 1c 3e 47 67 f4 3e
       -0.18405843 0.51944345 0.15310842 0.47735044
000070 85 9b 21 bf 45 69 e0 3e c7 db ab be 15 f3 11 3f
       -0.6312793 0.43830314 -0.33566114 0.5701154

static_variable_selection.flattened_grn.gate_norm.glu.fc.bias f4 [8]
000000 7f a8 14 3e 0c d0 b5 bb 95 92 85 3e b3 03 6a be
       0.14517401 -0.0055484828 0.26088396 -0.22852974
000010 06 ab e9 3d d4 45 f5 bd 01 42 01 be 0e 74 6d 3e
       0.11409573 -0.11976209 -0.12622835 0.23188803

static_variable_selection.flattened_grn.gate_norm.add_norm.norm.weight f4 [4]
000000 3e 86 8d 3f 9c 21 c3 3f 61 70 8d 3f 1b 90 7f 3f
       1.1056592 1.5244632 1.104992 0.9982926

static_variable_selection.flattened_grn.gate_norm.add_norm.norm.bias f4 [4]
000000 cf db b7 bd c0 13 cc 3d 93 3c d8 bd 86 68 a1 bd
       -0.08977472 0.099647045 -0.105584286 -0.078812644

static_variable_selection.single_variable_grns.zone.mask f4 [20]
000000 21 22 83 be 49 68 10 3d 5c b7 75 bd 88 52 ba bd
       -0.25611976 0.035255704 -0.05998932 -0.09097773
000010 7d cc d1 3c a5 e9 f9 bc 30 80 f6 bc ee 6d bd 3d
       0.025610203 -0.030506918 -0.030090421 0.09249483
000020 b6 71 7d 3c 09 c1 cb 3d 8d e5 4f 3d 3d 73 a2 3d
       0.015469005 0.09948928 0.050756026 0.07932136
000030 2b 8b 9f bd dc cb 8b bb 7f 9a 42 3d 3d bd 84 3d
       -0.07790216 -0.0042662453 0.04751062 0.06481407
000040 7a af d1 bb 6c c6 15 3d 3c 6d 08 3e ee 14 4c bd
       -0.0063990923 0.036566183 0.1332292 -0.049824648

static_variable_selection.single_variable_grns.zone.norm.weight f4 [20]
000000 dd bd 8d 3f f4 f3 50 3f 41 cc 81 3f 25 89 88 3f
       1.1073567 0.8162224 1.0140458 1.0666853
000010 d7 a6 5c 3f ac ab 51 3f 0b 32 49 3f 0e 9d 80 3f
       0.8619208 0.81902575 0.78591985 1.0047929
000020 36 36 66 3f c1 19 84 3f bc 41 3c 3f 32 fb 76 3f
       0.8992647 1.032036 0.735378 0.96477044
000030 3a c4 80 3f fd 7e 5a 3f 0d e8 4e 3f 3e 1a 48 3f
       1.0059884 0.8535002 0.8082283 0.7816504
000040 90 76 b4 3e 87 2d 47 3f 7d 04 87 3f fc 1a 6f 3f
       0.35246706 0.77803844 1.0548245 0.9340055

static_variable_selection.single_variable_grns.zone.norm.bias f4 [20]
000000 9a ec 26 3e 84 99 01 bd f8 37 6d 3d aa 7d c5 3d
       0.16301194 -0.031640545 0.057914704 0.09643109
000010 22 93 89 bc 1a a7 d9 3c 8c 43 16 3d 8a 3e 77 bd
       -0.016793791 0.026568938 0.03668551 -0.060362376
000020 1d 72 02 bc 10 cf 52 bd 18 f2 20 bd 8c 89 5e bd
       -0.007961777 -0.051467 -0.03929338 -0.054330394
000030 24 72 5f 3d 23 90 16 3c 52 d5 f1 bc 46 b7 7e bd
       0.054552212 0.009189638 -0.029520664 -0.062186502
000040 75 cd 46 3c 24 1f d5 bc 2c d0 a7 bd 9c 90 2f 3d
       0.012133946 -0.026015826 -0.081940025 0.04286252

static_variable_selection.single_variable_grns.encoder_length.fc1.weight f4 [20, 20]
000000 90 fa 59 3e 64 f0 98 bc 53 42 4a 3e 72 71 3b bf
       0.21286988 -0.018669315 0.19751863 -0.7321998
000010 9f 30 e6 be 2b 2c c7 3e 38 9c b0 3e c4 dc 1c bd
       -0.4495897 0.38900885 0.34494185 -0.038296476
000020 45 df 2e 3e 0f 45 36 bf c8 2f 6e 3d 64 89 86 be
       0.17077358 -0.71199125 0.058151037 -0.26276696
000030 d6 3e ba be 1c 6f 24 bf 4d a1 56 3e ac ed 30 bf
       -0.36376065 -0.6423204 0.20959969 -0.6911266
000040 60 64 d2 bd 9d bd f9 bd 8f 59 19 3f 8d b1 7f bc
       -0.10273051 -0.12194369 0.5990228 -0.015606296
000050 65 0f a8 bd a2 9e bb be c4 32 5e 3f 31 22 9c 3e
       -0.08206061 -0.36644465 0.8679621 0.30494836
000060 90 cb e7 3e a1 88 b9 3e 4a db b9 bd 1a 6d 8b 3e
       0.45272493 0.36237052 -0.09075029 0.27231675
000070 05 03 1d bc 7e 78 a2 be 45 fc af be af b9 f2 be
       -0.009583239 -0.31732553 -0.34372154 -0.4740729
000080 44 e3 49 bd 95 62 d9 bd 6e fd de 3d f6 91 29 be
       -0.049289003 -0.10614506 0.108881816 -0.16559586
000090 53 a4 a4 bc aa 16 cc 3d d9 80 0c bf 48 be 21 3d
       -0.020097887 0.0996526 -0.54884106 0.039488107
0000a0 c7 df 27 be 89 f0 8e 3c c0 15 5b 3e 34 52 61 be
       -0.16393958 0.01744868 0.21395016 -0.22004014
0000b0 82 7b f1 be 5b bc a3 be 81 f5 fe 3b 16 ea cd 3d
       -0.4716454 -0.3197964 0.007780731 0.10054414
0000c0 e1 9d fb 3e f3 6e 44 3e 37 41 03 3f 1d 43 07 3f
       0.4914389 0.19182949 0.51271385 0.5283678
0000d0 05 f0 8f 3e d9 a7 05 3f 9d ec 83 bd 9e a2 85 3d
       0.28112808 0.5220924 -0.06441615 0.065251574
0000e0 52 23 f1 bd 38 e2 31 be 3a 0a 15 be 3b b4 15 3e
       -0.11774315 -0.17371452 -0.14554682 0.14619534
0000f0 a3 91 2a 3f b5 d7 03 bd d3 5b 41 3e 4e d0 30 be
       0.66628474 -0.032188136 0.18882684 -0.17266962
000100 f4 49 82 3e 19 15 8d be 5f f9 19 3d fc c3 e0 be
       0.25447047 -0.2755516 0.037591334 -0.43899524
000110 2b 42 b3 3d c1 99 a8 3e 63 66 4c 3d 33 2a 8f 3e
       0.08752855 0.32929805 0.04990233 0.27961883
000120 c7 b2 43 3e ec 9f a2 3c c6 60 9b 3d 16 25 4a be
       0.19111167 0.019851647 0.075868174 -0.1974071
000130 d4 09 90 bc da d7 eb bc eb 73 48 3e 47 d9 d4 be
       -0.017582811 -0.02878945 0.19575469 -0.4157202
000140 2a ad c2 3e 90 8f 8e be 60 c2 de be aa ca a4 3d
       0.3802274 -0.27843904 -0.4350767 0.080464676
000150 e1 63 2b be 13 c8 1a 3f 34 3d 5e be 51 b6 b7 be
       -0.1673732 0.6046154 -0.21703035 -0.35881284
000160 de 89 d2 be e8 dc 98 3d f6 4d a9 3e 0b cd 7f 3d
       -0.4112081 0.074640095 0.33067292 0.062451404
000170 b9 98 7c 3e 75 d3 e2 bd 9c 75 78 3e 48 65 3f bc
       0.24667634 -0.110754885 0.24263614 -0.011681862
000180 d3 eb 05 3d c5 b5 25 3e 89 6c 65 3d 7c 79 aa be
       0.032695603 0.16182621 0.05601171 -0.3329581
000190 54 15 7d 3f ed 91 20 bf 89 50 35 3f 02 e0 14 bd
       0.9886067 -0.62722665 0.7082601 -0.036346443
0001a0 bd 36 af 3e e1 70 89 3f 45 6d 3f 3f ee cd 3b bf
       0.3422145 1.0737573 0.7477611 -0.733611
0001b0 f8 01 42 bd 34 a0 6a be f8 5f 0a bf 52 fa eb be
       -0.04736516 -0.22912675 -0.54052687 -0.46089417
0001c0 f0 82 58 3e 25 3c bc 3b ca 02 de 3e 2f d7 2c bf
       0.21143699 0.0057444745 0.43361503 -0.67515844
0001d0 24 64 11 bf 57 10 a9 3d 96 78 f7 bd bf 10 7f bd
       -0.5679343 0.0825507 -0.12083547 -0.06227183
0001e0 03 dd 3e be d0 8c 04 bf 0b 58 96 3e 2c e9 b1 be
       -0.18638997 -0.5177736 0.29364046 -0.3474821
0001f0 ac 8f bc 3e 40 13 a6 be 19 68 5f bc 88 0f 3f be
       0.36828363 -0.32436562 -0.013635659 -0.18658268
000200 56 7f e7 bd a9 b3 62 3e b9 ea bc 3e d8 2a 63 3d
       -0.11303584 0.22138847 0.3689783 0.05546078
000210 c8 91 d5 3c 63 15 8b 3b 0d c8 07 3f 07 0d 48 be
       0.02607049 0.004244493 0.5303963 -0.1953622
000220 35 2c e1 3e 2c 89 90 3e a4 c3 28 3e 24 95 14 3e
       0.4397904 0.28229654 0.16480881 0.14510018
000230 11 06 de bd c4 21 ed bd 79 a7 d4 be 9e d5 c9 be
       -0.10841001 -0.11578706 -0.41534021 -0.3942079
000240 e0 63 6a 3d 6d bd fb 3d e7 cd 8f 3e 4e a4 31 bf
       0.057224154 0.122919895 0.2808678 -0.69391334
000250 8c 57 ff 3e 86 1e e7 bd 6b 2f 93 be a5 8b ca 3e
       0.4987148 -0.11285119 -0.28747115 0.39559665
000260 3d fb be 3e 9d 69 b4 bd 87 86 87 3e b3 51 17 bf
       0.37301055 -0.08809207 0.26469824 -0.5910904
000270 b4 18 6e be 4c 9c f5 be cf 8f 15 3e b0 69 93 be
       -0.23251611 -0.47970808 0.1460564 -0.2879157
000280 22 82 05 3f 78 de 1e 3e f2 fb b5 be 6d d4 1b bf
       0.5215169 0.15514553 -0.35543782 -0.6087101
000290 48 06 5d be 42 bc 89 be 89 44 ef be 8a e3 d4 bd
       -0.21584427 -0.26901442 -0.46731976 -0.10394962
0002a0 e6 4d 46 3e 7e 69 db 3d d0 d9 c5 bc 66 a4 2f 3f
       0.19365653 0.107134804 -0.024151713 0.6861023
0002b0 00 39 00 3e 29 1f a0 3d 04 d0 9f be f8 1e 26 3e
       0.12521744 0.07818443 -0.3121339 0.16222751
0002c0 c0 5a ba be ea 5a 90 3e 9b 3f 9a bd 81 7c 59 3e
       -0.36397362 0.28194362 -0.07531663 0.212389
0002d0 0c c6 22 be 3f 20 14 3f dc b1 b2 3c 82 68 77 3c
       -0.15895861 0.57861704 0.021813326 0.0151006
0002e0 d1 e6 10 3f 16 33 dd bd 12 c8 bc be a3 52 4d bd
       0.566022 -0.108007595 -0.36871392 -0.050127637
0002f0 32 31 87 3e 2a a1 5b 3b 15 73 dd bd e6 7e 5f bd
       0.2640472 0.003351281 -0.10812966 -0.05456438
000300 62 be 28 bf 95 29 8e 3e c8 7d e5 3e 72 ce d5 be
       -0.659155 0.277661 0.44822526 -0.41759068
000310 57 8a 39 be b0 d5 7a 3e f2 24 b8 3e 0d b8 d0 be
       -0.18119179 0.24495578 0.35965687 -0.4076542
000320 9f 0e 98 3e 5b c7 c9 3d 30 7b be be dc 6f be be
       0.29698655 0.09852477 -0.3720336 -0.37194717
000330 e4 45 9c be 88 08 c2 bd 5e 5e 00 3e 24 30 e6 3e
       -0.30522072 -0.094742835 0.12535998 0.44958603
000340 b2 e3 c2 bc d9 f5 cc 3e b4 4f db be 69 49 2e be
       -0.023790214 0.40031317 -0.42834246 -0.17020191
000350 0d 80 86 3e ad 88 9f be 1d dd 16 3e ec 39 58 3d
       0.2626957 -0.31158963 0.14732786 0.052789614
000360 71 6a b1 be da 10 97 3d 19 19 75 3c fc 16 63 be
       -0.3465152 0.07376261 0.014959597 -0.22176737
000370 ec ad 82 bd 72 7f 63 3e cd c8 1f bd d7 c1 97 3e
       -0.06380829 0.22216585 -0.039009858 0.29640076
000380 cc c2 77 be b3 d0 99 be c5 b8 4e 3e 11 77 9b 3d
       -0.24195403 -0.30042037 0.20187671 0.075910695
000390 37 90 81 3e 60 ad 85 3e a4 55 24 bd d1 9e a8 be
       0.2530534 0.26108837 -0.040120736 -0.32933667
0003a0 16 90 7f be 2b 53 be 3d 24 ae c3 3c 1e 68 12 be
       -0.24957308 0.09293207 0.023886748 -0.1429753
0003b0 e4 01 1b bf 1b 89 5d be 6b af 23 3c 98 b4 b7 be
       -0.6054976 -0.21634333 0.009990553 -0.3587997
0003c0 f3 49 59 bd a0 7a 0c 3e 17 62 6d 3e c2 8b 4c 3e
       -0.05304904 0.13718653 0.2318195 0.19975188
0003d0 5f 31 8c 3e 17 1d 35 3e 3d fc 0e bf 3e a2 32 3f
       0.27381417 0.17686878 -0.55853635 0.6977881
0003e0 db be fc bb 8d aa b8 3c 64 14 7c be 4d 0e 0d bf
       -0.0077131814 0.022542262 -0.24617153 -0.55099946
0003f0 9a 22 3e 3e a7 34 03 be 83 15 88 be 2b 0a cd 3e
       0.18567887 -0.12813054 -0.26578912 0.4004682

static_variable_selection.single_variable_grns.encoder_length.fc1.bias f4 [20]
000000 ea 15 51 be d3 45 97 bd 40 28 9f 3d b8 e8 57 be
       -0.20418516 -0.07386365 0.07771349 -0.21084869
000010 41 ac 4e bd 01 51 41 be fe cf fe bc 09 24 96 bd
       -0.050457243 -0.18878557 -0.031105038 -0.07331092
000020 0f 03 a3 3d 32 b9 12 3d 98 9a e4 3d 2d ff 3d bd
       0.07959568 0.035821147 0.11162299 -0.046385933
000030 b2 aa ab bd 33 a4 8b 3d cd e3 71 3d f1 cd 92 3d
       -0.08382167 0.06818428 0.05905514 0.071681865
000040 0b 29 fa bc 39 96 90 3c 56 fa c2 bd d4 ab 28 bd
       -0.030537149 0.017649757 -0.09520404 -0.041179493

static_variable_selection.single_variable_grns.encoder_length.fc2.weight f4 [20, 20]
000000 78 49 c8 be e3 10 c6 be 49 ff 10 be 13 62 63 3d
       -0.39118552 -0.3868476 -0.14159884 0.055513453
000010 fc 1d db 3e 5f 6b 25 3d 75 51 01 3f 65 4f 16 3f
       0.42796314 0.0403856 0.5051492 0.58714896
000020 87 9f f1 be 3d df 1a 3e 9b 58 3a 3e 73 88 62 3e
       -0.47192022 0.15124221 0.18197863 0.22122364
000030 b2 4b 08 be 41 0a 28 3f 4a 0c f4 3e 17 92 7b 3e
       -0.13310125 0.65640646 0.47665626 0.24567448
000040 7d df 37 be 0c a8 65 bd b8 d4 50 3e 67 7d 1c bd
       -0.17956348 -0.056068465 0.20393646 -0.03820553
000050 2d 82 ae 3e 4d 56 71 3e 03 26 62 bd 65 8a ac 3e
       0.3408369 0.23568077 -0.055212032 0.33699337
000060 e1 12 2e 3e 16 d2 4b 3f 4b 14 f5 3e 55 98 f6 3e
       0.16999389 0.7961744 0.47867045 0.48163095
000070 3f 08 9f be 28 54 e6 bd 94 38 d7 be 7e 64 13 3e
       -0.3106098 -0.1124652 -0.42035353 0.14393803
000080 88 92 cf bd 27 05 84 be 1e 6e 37 bd 81 d0 05 3e
       -0.101353705 -0.2578518 -0.04478275 0.13067819
000090 f8 eb 8c 3e 9e 23 2d bf e9 7d c9 3e ff bc 5c be
       0.2752378 -0.6763247 0.39353874 -0.21556471
0000a0 64 b5 fa be 32 bd 9d be e9 66 92 3e 47 ab 3a be
       -0.48966515 -0.30808407 0.2859414 -0.182294
0000b0 7c ae ad bd 83 64 02 bf 5b 8b 97 3e d1 31 82 3c
       -0.08480546 -0.5093462 0.29598507 0.015892895
0000c0 7e 90 17 3f fe c1 7e bd 5c a7 bd be fd 7c 7b 3e
       0.5920485 -0.062196724 -0.37041748 0.24559398
0000d0 7f 0b 0f 3f 3d ee e1 3e 6e a0 38 3e a5 c3 5b 3e
       0.55876917 0.44127074 0.18029949 0.21461351
0000e0 21 4c 09 bf 75 92 d5 bd 04 1b 66 be f3 cb 14 3e
       -0.5363179 -0.10428325 -0.22471243 0.14530925
0000f0 b7 bc 8a be 39 95 2b 3d db f9 ff 3e 3f 35 c9 bd
       -0.27097103 0.041890357 0.49995312 -0.09824609
000100 ff e9 f5 be ca e3 9d be 19 7f c4 3e 5b e7 c7 3e
       -0.48030087 -0.30837852 0.38378218 0.39043698
000110 fc 27 5a bd fb 8f 29 be 01 81 53 bf 09 0b 1e bf
       -0.05326079 -0.1655883 -0.8261872 -0.6173559
000120 4b d6 12 3d 59 bb 00 be 99 1b 99 be 2e 8b 29 bf
       0.035848897 -0.12571467 -0.29903868 -0.66227996
000130 3b 7d d3 bd cf f3 4f 3e 2c 2f 70 3e b6 43 21 bf
       -0.1032662 0.2030785 0.23455495 -0.62993944
000140 53 80 56 be 71 93 8c 3d 03 76 e2 3e e7 45 ca 3d
       -0.2094739 0.0686406 0.4423066 0.09876614
000150 cd b2 8c be 16 ac fb 3d 8c 3d 5b 3e 62 e7 71 3e
       -0.27480164 0.12288682 0.21410197 0.23623422
000160 a4 d2 19 be 3c a9 dd 3e 9e f6 a0 bd 44 bb 97 3e
       -0.1502176 0.43293178 -0.078595385 0.2963506
000170 5a 33 ff 3d 74 bd d3 3d 92 a4 f5 3d 6f 4a ce 3c
       0.124609664 0.1033887 0.1199428 0.025181977
000180 f0 c5 75 3d b0 87 c8 3d 95 50 59 3e 21 a7 11 3f
       0.06000322 0.09791505 0.21222146 0.56895643
000190 4c df cb bd 10 e3 1c bf 81 f9 7b 3e 7f 90 2a bf
       -0.099547 -0.6128397 0.24606897 -0.66626734
0001a0 e5 d4 12 3e ab f5 57 bd ab 3e de bd 48 45 47 3e
       0.14339025 -0.05272452 -0.10851797 0.19460022
0001b0 11 d8 11 3f b8 c8 26 3d 04 20 9d 3e 97 ee 0b 3e
       0.56970316 0.040718764 0.30688488 0.13665234
0001c0 ba 3b b5 be 45 47 29 3f d4 51 d3 be 6b 28 87 3e
       -0.3539713 0.66124374 -0.41273367 0.26398024
0001d0 4c 34 4f bf 6c 5a 0a 3e ef bb c8 be c2 12 3b 3d
       -0.80939174 0.13511056 -0.39205882 0.045672186
0001e0 49 d5 07 3e 94 5e 47 3e 6e e1 19 bf c4 2b 4c be
       0.13264956 0.19469672 -0.60109603 -0.1993857
0001f0 5f 31 21 3e 36 64 38 be 79 81 ef 3e 4c 7a 9e 3e
       0.1574149 -0.18006977 0.46778467 0.3095268
000200 a6 56 e3 3e f8 90 2c 3e 93 d5 04 3f 32 81 bc be
       0.44402045 0.16852176 0.5188839 -0.36817318
000210 b0 2b 11 bd 9b 10 9c be 90 3c a1 3a 30 a3 05 bf
       -0.035442054 -0.3048142 0.0012301374 -0.5220213
000220 b8 f2 3c 3e 67 88 24 3f 0e 46 82 3c d9 fd 22 bd
       0.18451965 0.64270633 0.015902545 -0.03979287
000230 a1 ca 8e be 0b 3a dc 3e 6a 7d 0b 3c c4 06 92 be
       -0.2788897 0.43013033 0.008513788 -0.28520787
000240 12 0c 44 bf df 58 34 be cc 2f 1c 3f 0e 4f 62 3e
       -0.7658092 -0.17612027 0.6101043 0.2210047
000250 96 3b cc 3e a3 be 94 be e0 54 04 3e 95 2a e0 3e
       0.3988921 -0.29051694 0.12923002 0.43782488
000260 a2 59 93 3c 08 75 21 be a0 f2 e5 be 49 10 cb bc
       0.017987076 -0.157673 -0.4491167 -0.024788039
000270 ca 8a 6b 3e 83 72 6e 3e d1 71 3d bf 2d 1b a5 bd
       0.23002163 0.2328587 -0.74001795 -0.08061824
000280 45 d2 0f be 85 7b 8d 3e de 0e 11 3e d6 8d 5a bf
       -0.14045055 0.276333 0.14165828 -0.85372674
000290 c5 ca a1 be b0 c7 28 bf 1c 3a 43 3e 4a 9c 87 3d
       -0.31600013 -0.659297 0.19065136 0.06621607
0002a0 e0 1b b7 3e 80 1b 0a bf 96 d3 07 3e 8f 71 b0 bd
       0.35763454 -0.5394821 0.13264307 -0.086154096
0002b0 cf aa af 3e 2d 9b 4f bd f3 4f e0 3c fd e0 f7 3c
       0.34310004 -0.050685097 0.027381873 0.03025865
0002c0 b3 94 00 3f 3f 6e e1 3d ee 6b 64 3d 9b 5e 00 3f
       0.50226897 0.11007356 0.055766992 0.50144356
0002d0 68 40 25 3f 29 e1 e5 3c e3 43 17 3e ac a7 d9 3d
       0.645514 0.028061466 0.1477199 0.10627684
0002e0 a7 8e 8d bd 4f 23 66 3c fc 3f 4b 3d 02 b5 67 3e
       -0.069119744 0.014046504 0.049621567 0.22627643
0002f0 f9 b2 8c ba 5a aa 5e be af e1 62 3e 3c c8 11 bf
       -0.001073449 -0.21744671 0.22156404 -0.5694616
000300 58 bc 39 be df e0 93 be fa 4a 34 3e 5c d2 71 be
       -0.18138254 -0.288825 0.17606726 -0.23615402
000310 c1 d9 0a 3e 7a 2b 64 bc db 37 89 3e e5 b8 cd bd
       0.13559629 -0.013926381 0.26800427 -0.100450315
000320 6e e1 ae 3e eb c7 ac 3e 07 6f 34 3d fc 59 77 bd
       0.34156364 0.33746275 0.044051196 -0.06038855
000330 ab 04 38 3b 65 d0 2c 3e 60 5d 88 be 3d 6d 22 3e
       0.0028078954 0.16876371 -0.2663374 0.15861984
000340 64 27 bd be f3 17 70 3d 76 b5 25 bf 43 23 8e be
       -0.36944115 0.05861659 -0.6473001 -0.27761278
000350 51 7a 52 be d9 6d 8f 3d 02 26 85 3e 04 1f a6 bc
       -0.20554473 0.07003374 0.2600556 -0.020278461
000360 dd 69 23 be bc e9 e4 3e 97 fe e0 be 93 dc fc 3e
       -0.15958352 0.44709575 -0.43944237 0.49387035
000370 2f 99 d6 be a1 b3 fe 3c d3 4c 94 be 40 d5 e6 be
       -0.41913745 0.031091513 -0.28964862 -0.45084572
000380 aa 1d 5d 3d f2 46 3f be bd f3 43 3c da b3 6d be
       0.053983368 -0.18679407 0.011959967 -0.23213139
000390 f5 df 07 be 60 41 37 3e e3 51 27 3f 6b 04 4e be
       -0.13269027 0.17896032 0.65359324 -0.20118873
0003a0 db 10 fa 3e ca 62 36 3e 5b 62 8e be 82 73 93 be
       0.48840985 0.17811123 -0.27809414 -0.28799063
0003b0 f7 43 03 be 0f 55 a9 3e 45 bd dd 3c 02 fb 92 bd
       -0.12818895 0.33072707 0.02706779 -0.07176782
0003c0 75 ac db 3e 73 9b 1c 3f 40 64 8f be e3 2f a2 3e
       0.42905012 0.61174697 -0.28006172 0.3167716
0003d0 e2 a7 c7 3e b4 0c 2c 3e bb 08 66 bd b6 96 49 bd
       0.38995272 0.16801721 -0.05616067 -0.049215995
0003e0 84 67 19 be 25 14 87 be 5e 22 ce be c9 6b 32 be
       -0.14980894 -0.26382557 -0.40260595 -0.1742393
0003f0 52 19 74 3f ac 90 54 be 0c 32 25 bc 6f 3b 09 bf
       0.95351136 -0.20758313 -0.010082733 -0.53606313

static_variable_selection.single_variable_grns.encoder_length.fc2.bias f4 [20]
000000 1c 1d 4a 3b 79 ba 4f bd b4 b1 7e 3d 4d 78 e9 bc
       0.0030840104 -0.050714944 0.06218119 -0.028499747
000010 68 0c 81 bb ec 4c 8c 3d 89 a1 8c bd 15 a1 bc 3c
       -0.0039382465 0.06850609 -0.06866748 0.023026029
000020 3d 38 c3 3d ca 9b c8 3c 2e 06 86 bd 23 4a 59 3c
       0.09532211 0.024488349 -0.065441474 0.0132623045
000030 8e 11 a7 bd 5d ab 2c bd 0b 1e 72 bd 83 92 8c bd
       -0.08157645 -0.042155612 -0.059110682 -0.068638824
000040 a4 f1 ff 3c 04 0b bc 3c 0e 86 e1 3b 9b 8c 53 3d
       0.031243153 0.022954471 0.0068824356 0.051647764

static_variable_selection.single_variable_grns.encoder_length.gate_norm.glu.fc.weight f4 [40, 20]
000000 6b 36 ab 3e 7a 4f fd be bc 76 fc 3d 22 a4 26 be
       0.33439955 -0.49474698 0.12327334 -0.16273549
000010 0f 0f b1 bd b7 9d d4 3e 3b b7 f0 bd 42 9b b2 3e
       -0.0864545 0.41526577 -0.117536984 0.34884077
000020 f5 80 4e bc 89 c2 a4 3e 3e 99 a8 3e fd f2 31 be
       -0.012603988 0.3217967 0.32929415 -0.17377849
000030 b3 66 e4 be 07 06 99 3e e5 71 87 be 12 48 3c 3e
       -0.44609603 0.2988741 -0.26454082 0.18386868
000040 14 b2 4a 3e 81 09 3a 3e 5e bb 8d be d9 9c a3 bb
       0.19794494 0.18167688 -0.27682012 -0.004993063
000050 58 28 15 3e 6a 36 f4 3d c9 dd 03 be 13 df 95 3c
       0.14566171 0.11924441 -0.12877573 0.018294847
000060 e0 09 19 be 56 a8 30 be 67 42 63 3e 6b 59 e2 3d
       -0.14945173 -0.17251715 0.22193299 0.110522114
000070 53 a6 69 3e d6 a6 61 3e 11 65 16 3e de 95 44 3e
       0.22817354 0.22036299 0.14686991 0.19197795
000080 42 b4 98 bd 0a ec bb 3b 38 ef 2f be 45 aa 37 3d
       -0.074562564 0.005734925 -0.17181098 0.044840116
000090 4b dd 61 3e af d6 80 bd d3 a9 35 be c7 63 ca 3c
       0.22057073 -0.06290948 -0.17740564 0.02470578
0000a0 5d ca 82 3e 25 45 9d be 12 f9 05 be 81 23 f2 be
       0.25545016 -0.30716816 -0.13083294 -0.47292712
0000b0 28 25 93 3e 36 09 b3 3e 57 4b 46 be 4e e0 48 3d
       0.28739285 0.34967965 -0.19364677 0.04904204
0000c0 38 2d c0 3d b5 4b 8b bd 78 ce 0e be a2 dc 08 3e
       0.09383625 -0.06801549 -0.13945949 0.13365415
0000d0 40 8b 86 be 2b 68 94 3e b1 66 c4 be 1b 3b 44 3e
       -0.26278114 0.28985724 -0.38359597 0.19163172
0000e0 78 ef 7e be 8f 2b 1c be b3 a6 b5 be 4e b5 86 3b
       -0.24896038 -0.15250991 -0.35478744 0.0041109687
0000f0 7d dc 72 3d a4 37 b5 3d a1 98 08 be c9 83 e0 bd
       0.059292305 0.08848503 -0.13339473 -0.10962636
000100 17 94 7b bd 1c 9c fd bd 89 f4 4f bd 68 b3 8b 3e
       -0.061420526 -0.12383291 -0.050770316 0.27285314
000110 02 07 9c 3e f5 20 a2 bd b9 61 55 3e 84 6f 55 3d
       0.30474097 -0.07916442 0.2083806 0.052108303
000120 e2 2e 80 3e 4c 62 3d be ec ae 40 3e 86 af db 3c
       0.2503577 -0.18494529 0.18816727 0.026817095
000130 93 dc 16 3d d2 0f 90 3d 77 0b c8 bd ab ef 66 bc
       0.03683145 0.070342675 -0.09767812 -0.014095227
000140 ea 7e 5e be ee 1b a8 3e e3 5e a7 bc 5a a8 63 be
       -0.21728101 0.3283381 -0.020430988 -0.2223219
000150 11 22 36 3e 96 1f 26 be c2 cc 52 be 31 2f e0 3c
       0.17786433 -0.16222987 -0.20585921 0.027366253
000160 a5 ce 2e 3e d4 d8 dc 3c 0a 63 27 be f3 7e 3b 3e
       0.17071016 0.02695886 -0.16346374 0.18310146
000170 b3 a5 96 3d 6f fd 8d be c4 82 4d 3e 28 12 7a be
       0.07355823 -0.27732417 0.20069414 -0.24420989
000180 6d 67 a3 3d 9c 12 da bd 4b 0e ea bc 11 56 9e be
       0.07978711 -0.10648081 -0.028571269 -0.30925038
000190 f2 59 21 3d bb f7 ca be d5 d6 a9 3e 12 9e 25 3e
       0.03939242 -0.39642128 0.33171716 0.1617358
0001a0 30 76 90 3e 7f d8 a2 3e 38 f1 11 be 70 4d 0d 3e
       0.2821517 0.31805798 -0.14252174 0.13799071
0001b0 3b c1 8a bd aa bc 24 be b9 91 eb 3c f3 a6 f1 bd
       -0.06775137 -0.16087595 0.02875601 -0.11799421
0001c0 44 ea 9a bd 33 a2 29 3e b0 fd ab 3d 0e e9 1d bc
       -0.07564214 0.1656578 0.083979964 -0.009638084
0001d0 c8 22 ac 3e 1e f5 a3 3e 56 60 81 3e c2 f9 00 3d
       0.33620286 0.32022947 0.2526881 0.031488188
0001e0 39 82 eb bd 1a c9 0f 3d ed be ad bd 74 a4 67 3d
       -0.114994474 0.035103895 -0.08483682 0.05655332
0001f0 73 cc 82 be 66 0b e4 3d 21 41 14 3e 3f 93 c2 bd
       -0.25546607 0.111349866 0.1447797 -0.09500741
000200 ca 9d 67 3e 33 aa c7 bd c7 fc 08 be 1a cc 9f bd
       0.22618786 -0.0974926 -0.13377677 -0.07802601
000210 5d ab 37 3e d0 f2 20 be 28 60 2c be 8a 40 fd 3d
       0.17936464 -0.15717626 -0.16833556 0.123658255
000220 cf b7 d4 bd 13 7f 60 3d db a8 47 3d ef 6c 8e 3d
       -0.10386621 0.054808687 0.048745017 0.06954371
000230 6b 4e 53 3e 55 52 19 bc 77 6d 45 be 52 8a 35 3b
       0.20635383 -0.009358008 -0.19280039 0.0027700854
000240 b6 1b ad 3d 92 23 a3 3e 8d 5b 44 be 3b da 29 bc
       0.08452551 0.31863075 -0.19175549 -0.010366972
000250 db 52 56 3e b6 01 22 3d 61 d7 8d 3d 63 2a 08 3e
       0.20930044 0.039552413 0.06925846 0.13297419
000260 19 02 85 be 00 c7 74 bd cc f7 02 3e d3 f2 6d bd
       -0.25978163 -0.059760094 0.1278984 -0.058092903
000270 46 46 8c 3d 78 00 10 be ab e2 47 bd 4f 9b f4 bd
       0.06849341 -0.14062679 -0.04880015 -0.11943685
000280 35 61 26 3d a1 25 df 3e 2f 4a b0 be f6 47 53 3e
       0.040620048 0.43583396 -0.34431598 0.2063292
000290 5f 80 11 bd 2e ed 6e 3c 94 6f 6e 3e 15 46 b0 bc
       -0.035522815 0.014582915 0.23284751 -0.021517793
0002a0 56 0f 89 be 6a 50 88 3e d1 5d a1 3e df aa 98 be
       -0.26769513 0.2662385 0.3151689 -0.29817864
0002b0 24 51 53 3e 45 c5 25 bb c8 b2 1b bd 79 8a 16 3e
       0.20636421 -0.0025294584 -0.038012296 0.1470126
0002c0 ab c0 dc bc 06 a8 0e be 53 3e 34 be 5a 9e 48 be
       -0.02694734 -0.13931283 -0.176019 -0.19591656
0002d0 0b 7b 1f 3e 72 65 8d be e6 65 59 be 60 7e 7c 3e
       0.15574281 -0.2761646 -0.21230277 0.24657583
0002e0 43 13 30 3e e4 68 88 3e ee 32 4d 3e c5 7b f2 bc
       0.17194848 0.26642525 0.2003896 -0.029600034
0002f0 cc 5d 94 be 32 4a f4 3d 17 a4 a7 3d 7e 28 2b 3e
       -0.2897781 0.11928214 0.081855945 0.16714665
000300 4c 75 01 3e a9 8b ec 3d d5 d2 4a 3e d2 94 84 be
       0.12642401 0.115500756 0.19806989 -0.2589479
000310 8d c3 ba bc e8 35 7b 3d 2c a6 81 be 77 14 35 3e
       -0.022798324 0.061330706 -0.25322092 0.17683588
000320 33 3f cd bd 85 f0 2a be 80 56 af 3e 41 56 4c bd
       -0.1002182 -0.16693313 0.34245682 -0.049886946
000330 1f 94 8a 3e 6c 08 96 3d 11 70 96 be 26 6a a5 3d
       0.27066132 0.07325825 -0.29382375 0.08076887
000340 96 e2 98 3e 6e ac f4 3c 3b a5 8b be ab a9 92 3e
       0.2986037 0.029867377 -0.27274498 0.2864507
000350 dc 9a 4d 3e f6 22 cb be ab 97 02 bc 23 21 97 be
       0.20078605 -0.3967511 -0.007970731 -0.2951747
000360 5c ae 13 be 94 c3 94 be 0f 8c 4e 3e dd 26 b8 be
       -0.14421982 -0.29055464 0.20170616 -0.3596715
000370 b2 d6 42 be 3c b5 b7 be 3a ea 8d 3e b3 e7 3f bc
       -0.19027212 -0.35880458 0.27717763 -0.011712956
000380 73 83 6c be b1 1b 0d bb f9 eb 31 be 1e 36 1a be
       -0.23097019 -0.0021531398 -0.17375173 -0.15059707
000390 e3 51 2a 3e e5 41 f4 bd 56 c7 36 3e 5a 57 00 3f
       0.166328 -0.11926631 0.17849478 0.5013329
0003a0 2f ec 91 3e 34 c2 7e be 15 e9 58 be cc 59 9b 3d
       0.28500506 -0.2487877 -0.21182664 0.07585487
0003b0 1e c6 ab be 45 72 88 be 96 fd 13 3e c3 b5 4d 3e
       -0.3354959 -0.2664968 0.14452204 0.20088868
0003c0 7d cc f7 bd a4 84 86 be e5 eb 4e 3e 69 71 53 3e
       -0.1209955 -0.26273072 0.20207174 0.20648731
0003d0 3a 2c 27 be e6 c9 54 be cc 34 78 bd cc f0 c0 3d
       -0.16325465 -0.20780143 -0.060597226 0.09420928
0003e0 a4 bc 93 3e c3 fb 0b 3e b4 6c 9f bd 42 43 22 be
       0.2885486 0.13670258 -0.07784405 -0.1584597
0003f0 10 f3 18 be 58 47 44 be 58 f5 81 bd d7 da cd 3b
       -0.14936471 -0.1916784 -0.06345624 0.0062821913

static_variable_selection.single_variable_grns.encoder_length.gate_norm.glu.fc.bias f4 [40]
000000 df f9 35 bd c0 4b cf bb 8d 98 9c 3d 98 00 89 3d
       -0.04442775 -0.006326169 0.07646284 0.066895664
000010 57 4f 25 bc 73 21 86 3d c7 10 ee 3b 44 32 e0 bb
       -0.010089717 0.06549349 0.0072651836 -0.0068419296
000020 01 93 30 be 4a c9 bb bc 7e 53 2b 3e 95 8f ad 3d
       -0.17243578 -0.02292313 0.16731068 0.08474652
000030 d6 67 b9 3d 87 cd 27 be 78 cb 77 b9 bc 67 6f 3d
       0.09053008 -0.16386996 -0.00023631554 0.05844854
000040 ae 4f 01 3c 79 3e 80 3d 12 c5 97 bd 2c c1 53 3d
       0.007892532 0.06261916 -0.07410635 0.051697895
000050 59 12 90 3c 59 43 ff 3b ae 8c 33 be 4e 0f 6e bd
       0.017586874 0.007790011 -0.17534134 -0.058120064
000060 8d 60 a9 3c 22 18 e5 3a 7d f2 0f be 2b 7b 87 bb
       0.020675922 0.0017478506 -0.14057346 -0.004134556
000070 d0 4a 7b 3d 77 77 c9 bd b1 55 e1 3c 62 de 67 3d
       0.061350644 -0.09837239 0.027506681 0.056608565
000080 e6 9b 0d be cc b8 01 3e 6f 93 05 be 13 f4 25 bd
       -0.13829002 0.1266815 -0.13044523 -0.04051597
000090 0a b7 d4 3c 9c ed 66 bd ec a7 d6 3d 8e 96 84 3c
       0.025966186 -0.056378946 0.10481247 0.016185071

static_variable_selection.single_variable_grns.encoder_length.gate_norm.add_norm.norm.weight f4 [20]
000000 49 43 8f 3f 77 55 3e 3f da cc 8c 3f bc dd a0 3f
       1.1192409 0.7434916 1.1000016 1.2567668
000010 f0 80 86 3f d5 95 41 3f 98 0b 48 3f 03 39 66 3f
       1.0508099 0.7561925 0.7814269 0.8993074
000020 f9 e3 75 3f 78 a3 8b 3f 68 cb 91 3f 0b 1e 75 3f
       0.96050984 1.0909262 1.13902 0.95748967
000030 af 43 60 3f 54 e1 9c 3f 37 e3 55 3f ee 8d 88 3f
       0.87603277 1.2256265 0.8354983 1.0668314
000040 cb 53 82 3f 46 3f 7d 3f 30 fe 63 3f d9 b8 8c 3f
       1.0181822 0.9892467 0.89059734 1.0993911

static_variable_selection.single_variable_grns.encoder_length.gate_norm.add_norm.norm.bias f4 [20]
000000 f3 fb 2f be cd 2a a2 3d 56 68 ad 3d 96 cc 90 3e
       -0.17185955 0.0791832 0.08467166 0.28281087
000010 3b 90 cd 3d 15 3b 6d be ae df bc bb 6d a3 ac 3c
       0.100372754 -0.2316707 -0.0057639694 0.021074021
000020 42 ab d8 bd 79 a3 f4 3d 25 6b 4e 3e 23 62 ae 3d
       -0.1057954 0.119452424 0.2015806 0.08514812
000030 b1 a1 f9 bc c4 80 84 be 88 3c cb bd 8f 46 b5 3d
       -0.030472608 -0.2587949 -0.09923655 0.088513486
000040 22 f9 99 bd b8 c8 47 3d 4e 1b 99 bc 7d 55 2c 3e
       -0.075182214 0.048775405 -0.018689778 0.16829486
